full_model.pth (torch, 40422 bytes, 6 tensors)

weight f4 [8, 1, 3, 3]
0	0xbe12cc44	-0.14335734
1	0x3f197678	0.59946394
2	0x3f5e0fa5	0.8674262
3	0x3d8ca2e2	0.06867005
4	0x3f0c89c4	0.54897714
5	0x3f415ae0	0.7552929
6	0x3e977086	0.29578036
7	0xbe3d7f8d	-0.18505688
8	0xbd85c72b	-0.06532129
9	0xbae095fa	-0.001713454
10	0x3dd46010	0.10369885
11	0xbf266f7c	-0.6501386
12	0xbe45e018	-0.19323766
13	0xbf453b32	-0.7704345
14	0xbbb45542	-0.0055033276
15	0xbf2e2fde	-0.6804179
16	0xbe03fd9b	-0.12889712
17	0x3ea483b2	0.32131726
18	0xbee2b2e2	-0.44277102
19	0x3ef9c089	0.48779705
20	0x3f2b038b	0.6680228
21	0xbf8d8aa6	-1.1057937
22	0xbf730183	-0.9492418
23	0xbe74e83a	-0.23916712
24	0x3eb043ab	0.34426627
25	0xbea8e8aa	-0.3299001
26	0xbedc35ed	-0.43009892
27	0x3f3b125c	0.7307489
28	0x3f148733	0.580188
29	0x3ef23d98	0.47312617
30	0xbde65915	-0.1124746
31	0x3d4d71e7	0.050157454
32	0xbd895f7c	-0.06707665
33	0xbf298682	-0.6622087
34	0xbf23fce3	-0.6405775
35	0xbd5d4808	-0.054023772
36	0x3ee0840e	0.4385075
37	0x3ea91060	0.33020306
38	0xbd09db15	-0.0336562
39	0x3ec5dad9	0.3864353
40	0x3d53a82f	0.051674064
41	0x3d7f713e	0.062363856
42	0xbdc5d168	-0.09659082
43	0x3efe73a8	0.49697614
44	0xbe3e0caf	-0.18559526
45	0xbd311fbb	-0.04324315
46	0xbe2bc9a2	-0.16776136
47	0xbe882199	-0.26588133
48	0x3e6640ef	0.22485708
49	0x3f01f3e0	0.5076275
50	0x3f0d9996	0.5531248
51	0x3f16e521	0.5894337
52	0x3f06f099	0.5271087
53	0x3d14b981	0.036309723
54	0x3f270c48	0.65253115
55	0x3e2ae45f	0.16688679
56	0xbec9eb3b	-0.3943728
57	0x3f3d9e8b	0.7407004
58	0x3ea37454	0.3192469
59	0x3efc5ee6	0.49291152
60	0x3d5d9b7b	0.054103356
61	0x3f10e18e	0.5659417
62	0x3ebd3809	0.36956814
63	0x3f1e17b9	0.6175495
64	0x3e85619e	0.26051039
65	0xbefccd44	-0.49375355
66	0x3eb5b3b8	0.35488677
67	0x3dd64a85	0.10463432
68	0xbf21bf36	-0.6318239
69	0x3f1eea71	0.6207648
70	0xbe85181d	-0.2599496
71	0xbf077dcc	-0.52926326

bias f4 [8]
0	0x3c5e2e85	0.013560896
1	0x3ec3ac3a	0.38217336
2	0x3eac1c9e	0.33615583
3	0x3c79c8b8	0.015245609
4	0xbc910845	-0.017704139
5	0xbcd3d137	-0.025856597
6	0xbd9103e0	-0.07080817
7	0x3d47afc0	0.048751593

weight f4 [16, 8, 3, 3]
0	0x3d8d2959	0.06892652
1	0x3e4c5eac	0.1995799
2	0x3e862aa0	0.26204395
3	0xbce98c50	-0.028509289
4	0x3d91fce7	0.071283154
5	0xbde87624	-0.113506585
6	0xbe8eef92	-0.27917153
7	0xbe978389	-0.2959254
8	0xbe973532	-0.29532772
9	0xbe891aab	-0.2677816
10	0x3bb65b3b	0.0055650747
11	0x3d517950	0.051141083
12	0xbdc324ea	-0.09528525
13	0xbe16fd6b	-0.14745109
14	0x3e3bb4c4	0.18330675
15	0x3e3de2ad	0.18543501
16	0x3e18d198	0.14923704
17	0x3d51171c	0.05104743
18	0xbe35c9b2	-0.17752722
19	0xbdff4119	-0.12463588
20	0xbe18cff9	-0.14923085
21	0x3e2f8cf2	0.1714361
22	0x3e40f5da	0.18843785
23	0xbe35c6c5	-0.17751606
24	0x3e974736	0.29546517
25	0x3da70e15	0.08156983
26	0xbdea21aa	-0.11432202
27	0x3dc72ddf	0.09725546
28	0x3b9a4133	0.0047074794
29	0x3deb14af	0.114785545
30	0x3e473248	0.19452775
31	0x3ebaaf3b	0.36461815
32	0x3e873b69	0.26412514
33	0xbe342cb6	-0.17595181
34	0xbe157f19	-0.14599265
35	0xbf0caf49	-0.54954964
36	0x3e60dfe1	0.21960403
37	0xbae3a4f8	-0.001736789
38	0x3db5b19f	0.08871769
39	0x3e02ee8e	0.12786314
40	0x3da67cdc	0.08129284
41	0xbae877e4	-0.0017735926
42	0xbe077e8a	-0.13231865
43	0xbe19e0c0	-0.15027142
44	0xbe828bda	-0.25497323
45	0x3e5c7278	0.21528041
46	0x3e026055	0.1273206
47	0x3e6b5546	0.22981748
48	0xbeb74337	-0.35793468
49	0xbcc4b88c	-0.02401378
50	0xbf04f551	-0.51936823
51	0x3d8329fc	0.06404492
52	0x3c8af59d	0.01696282
53	0x3e8cea7a	0.2752264
54	0x3e979676	0.2960698
55	0x3e597c1b	0.21238749
56	0x3c2d6bbb	0.010584767
57	0xbe7a1f6f	-0.24426053
58	0xbdc08489	-0.09400279
59	0xbe910c2b	-0.28329596
60	0xbe4f9014	-0.20269805
61	0xbdcf0069	-0.101075
62	0x3c8b78b0	0.017025322
63	0x3d66e133	0.05636711
64	0x3d290f79	0.04127452
65	0x3d1c6170	0.03817886
66	0xbe678130	-0.22607875
67	0x3d1e0d92	0.03858716
68	0x3ea98a53	0.33113346
69	0xbed52edb	-0.4163731
70	0xbe9e0029	-0.30859497
71	0xbe7c2153	-0.24622087
72	0xbe97e28a	-0.29665023
73	0x3e558dc7	0.20854865
74	0x3ec09dd4	0.37620413
75	0x3eac0846	0.33600062
76	0x3e65bf92	0.2243636
77	0xbe88c4fe	-0.26712793
78	0x3de0128c	0.109410375
79	0xbe2b65e9	-0.16738094
80	0xbdba5a57	-0.09099262
81	0x3e8357cb	0.25652918
82	0x3dd82497	0.10553854
83	0xbe0f396c	-0.13986748
84	0xbe8537fc	-0.26019275
85	0xbe7dba14	-0.24778014
86	0xbc7999bf	-0.01523441
87	0xbdd8e44f	-0.105904214
88	0x3b5eec74	0.0034015449
89	0xbdb4ecea	-0.0883425
90	0xbddab9c6	-0.10679965
91	0xbf11631b	-0.5679185
92	0xbe694668	-0.22780764
93	0xbef7d5b8	-0.48405242
94	0xbe8888e0	-0.26666927
95	0x3bc87792	0.0061177695
96	0xbe1adaa8	-0.15122473
97	0x3d324408	0.04352191
98	0xbd5e310d	-0.054245997
99	0xbd8f0206	-0.06982808
100	0xbed5c8fc	-0.417549
101	0x3e5138e3	0.20431857
102	0xbe63461e	-0.22194716
103	0x3ecf581c	0.4049691
104	0x3e96eb92	0.294766
105	0x3ee0347b	0.4379004
106	0x3ea905e0	0.33012295
107	0xbd363104	-0.04448034
108	0xbe8cb033	-0.2747818
109	0xbe0cacc6	-0.13737783
110	0x3e10feb8	0.14159667
111	0x3d989b15	0.074514546
112	0x3d5c85bf	0.053838488
113	0x3d415d8d	0.047208358
114	0x3d731d53	0.059354138
115	0xbded02fa	-0.11572833
116	0xbd55692b	-0.05210225
117	0x3d449e53	0.048002552
118	0x3e9a3403	0.30117807
119	0x3de4f2de	0.11179136
120	0x3e5c12f4	0.21491605
121	0x3e2939bc	0.1652593
122	0xbe8c1ddf	-0.2736654
123	0xbbe2cb43	-0.0069212033
124	0xbe990f07	-0.29894277
125	0x3bdd27eb	0.0067491434
126	0xbd9abc59	-0.07555456
127	0xbc9a800e	-0.01885989
128	0xbd4df34a	-0.050280847
129	0x3db559cf	0.0885502
130	0xbdef4605	-0.11683277
131	0xbdd2f655	-0.1030089
132	0x3dbe8547	0.093027644
133	0xbe78efe7	-0.24310265
134	0xbd37d0cb	-0.044876855
135	0xbef537ec	-0.47894228
136	0xbe93ec2c	-0.28891122
137	0x3e45c40c	0.19313067
138	0xbdef50b3	-0.11685314
139	0x3e802196	0.25025624
140	0x3d68bc94	0.056820467
141	0x3eb0d963	0.34540853
142	0xbdef1641	-0.116741665
143	0xbd62ec04	-0.055400863
144	0xbebe4519	-0.37162092
145	0x3d7472f7	0.05967995
146	0x3eb2d2b8	0.3492639
147	0xbdd54214	-0.10412994
148	0x3e8d38e6	0.27582473
149	0x3d137eea	0.036009707
150	0x3e4c5817	0.19955479
151	0x3d4cbf48	0.049987108
152	0xbeebfb66	-0.4609024
153	0x3de344ee	0.11097132
154	0x3e8af93a	0.2714327
155	0xbde9a107	-0.11407667
156	0x3e2fbc5b	0.17161696
157	0xbd868cf3	-0.06569853
158	0x3dffc597	0.12488859
159	0xbc99a542	-0.018755559
160	0xbeada866	-0.3391754
161	0xbd6183a5	-0.055057187
162	0x3e83368e	0.2562756
163	0xbe285e96	-0.16442332
164	0xbefa11fe	-0.48841852
165	0xbe12d5fd	-0.14339443
166	0xbf6bff37	-0.921863
167	0xbee4290b	-0.44562563
168	0xbf13d28e	-0.57743156
169	0xbf38d1c2	-0.72195065
170	0xbe4bf618	-0.19918096
171	0xbc34dbeb	-0.011038761
172	0xbe673f9e	-0.22582862
173	0xbe0be400	-0.13661194
174	0xbe898efd	-0.26866904
175	0xbe13dfd6	-0.14440855
176	0x3e1c704e	0.15277216
177	0xbe749045	-0.2388316
178	0x3e12bfa9	0.14330925
179	0xbd7a581c	-0.061119184
180	0xbeb60eaa	-0.35558063
181	0xbe0ed3b9	-0.13947953
182	0x3cf46d3f	0.029837249
183	0xbe8e19ef	-0.2775416
184	0x3cf3fad8	0.029782698
185	0x3e2edbcd	0.17076035
186	0x3d2e42cc	0.04254417
187	0x3d0a69aa	0.033792175
188	0xbd03722e	-0.032091312
189	0xbed332db	-0.41249737
190	0x3e52e102	0.20593646
191	0x3e58e58d	0.21181317
192	0xbd8d1cee	-0.068902835
193	0x3e41b184	0.18915373
194	0xbdbb6a96	-0.09151189
195	0x3e3dab66	0.18522415
196	0x3d883fb3	0.06652775
197	0xbe5e8c69	-0.2173325
198	0xbecbb7b4	-0.39788592
199	0x3c9de64b	0.019274851
200	0xbd227349	-0.039660726
201	0xbcd4ae4e	-0.025962021
202	0x3d7d68be	0.061867468
203	0x3b3d4b28	0.0028883908
204	0x3e19e9fc	0.15030664
205	0x3cb59238	0.02216445
206	0xbde4e3c7	-0.111762576
207	0xbf0c1331	-0.54716784
208	0xbdb36a76	-0.0876054
209	0x3ed20a25	0.41023365
210	0xbee60307	-0.44924185
211	0x3ef0921a	0.46986467
212	0x3f041b54	0.516042
213	0x3deff9e8	0.11717588
214	0x3f143f1b	0.5790879
215	0x3e3978ce	0.1811249
216	0xbce1335c	-0.02749031
217	0xbdb5cd02	-0.08876993
218	0x3e0851db	0.13312475
219	0x3e230e2a	0.15923372
220	0x3e6efe39	0.23339166
221	0x3e865d70	0.26243162
222	0xbe188da1	-0.14897777
223	0xbcf76b11	-0.03020242
224	0xbe464fb7	-0.19366346
225	0xbe3e2fd2	-0.1857293
226	0x3dc338d4	0.095323235
227	0x3d936198	0.07196349
228	0xbaa22e9f	-0.0012373513
229	0xbe59eae9	-0.21281017
230	0xbe07cc74	-0.13261586
231	0x3d0966ca	0.033545293
232	0x3d03d606	0.03218653
233	0x3db6ebe1	0.08931709
234	0xbe853637	-0.26017925
235	0xbe6bbf1c	-0.23022121
236	0xbe5696a1	-0.20955898
237	0x3dacca97	0.084370784
238	0x3bd6a7c6	0.006550762
239	0xbdee3aa9	-0.11632282
240	0x3ef6d983	0.48212823
241	0x3e9cc3c6	0.30618113
242	0xbe699da1	-0.22814037
243	0xbe503f14	-0.20336562
244	0xbeb120f3	-0.3459545
245	0xbe7a1c5b	-0.24424879
246	0x3db1682c	0.08662447
247	0x3e0cd21c	0.13752025
248	0x3e6d0a59	0.23148479
249	0x3e065103	0.13116841
250	0x3e8db964	0.27680504
251	0xbd2c563d	-0.04207443
252	0x3c822d13	0.015890634
253	0xbc227224	-0.009914909
254	0x3deff39b	0.11716386
255	0x3cc19f45	0.023635516

bias f4 [16]
0	0xbd3f16f9	-0.046652768
1	0x3d7b125e	0.061296813
2	0x3c9f54b9	0.019449579
3	0x3c575084	0.013141755
4	0xbe1edee9	-0.15514721
5	0xbe1f5701	-0.15560533
6	0xbd7c6ba6	-0.0616261
7	0xbdecb842	-0.11558582
8	0xbdac71cd	-0.08420143
9	0xbdf4a397	-0.11945265
10	0xbd82d574	-0.06388369
11	0x3d13cc01	0.036083225
12	0xbdbf1e0f	-0.09331905
13	0xbe434fd3	-0.1907342
14	0x3c2b292d	0.010446829
15	0xbd904e59	-0.07046194

weight f4 [10, 784]
0	0x3dacd8b2	0.08439769
1	0x3dc689a3	0.09694221
2	0x3dd0cf2e	0.101957664
3	0x3e36f55b	0.17867033
4	0x3e35b3c5	0.17744358
5	0x3d724c5d	0.059154857
6	0x3dbcf168	0.09225732
7	0xbd552172	-0.05203385
8	0xbe1cdb7f	-0.15318106
9	0xbee0a0c6	-0.4387266
10	0xbd0240b3	-0.031799983
11	0xbd4eeb27	-0.050517228
12	0xbe8ec15f	-0.27881905
13	0xbe0a58f2	-0.13510492
14	0x3d879fac	0.06622252
15	0xbe8d8abf	-0.27644917
16	0xbdecf6c5	-0.11570505
17	0xbe10355f	-0.1408286
18	0xbe5ddc0d	-0.21665974
19	0xbea4c7a5	-0.32183567
20	0xbb90624b	-0.0044062487
21	0xbe0d260c	-0.13784045
22	0xbeca79f4	-0.39546168
23	0xbe836a15	-0.25666872
24	0xbe27da86	-0.16391954
25	0xbe0fd84f	-0.14047359
26	0xbe1b2a73	-0.15152912
27	0xbc07299f	-0.008249669
28	0xbd0d6c66	-0.034527205
29	0xbdae127c	-0.08499619
30	0xbe5fc1aa	-0.2185122
31	0xbe545916	-0.20737109
32	0x3da029d4	0.07820478
33	0x3e41d8d7	0.18930374
34	0x3de43f48	0.111448824
35	0xbc5c40bf	-0.013443171
36	0xbd0610bc	-0.032730803
37	0xbb507f37	-0.0031814107
38	0x3e049e15	0.12950929
39	0x3c76fc8f	0.015074863
40	0x3d4e06a7	0.050299313
41	0x3d2e3e07	0.042539623
42	0x3cc7a27a	0.024369467
43	0x3d19d14b	0.037553113
44	0x3d88f70e	0.06687747
45	0x3dd6af3f	0.10482644
46	0x3d0a6f28	0.033797413
47	0xbcaff27c	-0.02147793
48	0xbd86b445	-0.065773524
49	0x3d0650bc	0.032791838
50	0xbd0cbf6d	-0.034362245
51	0xbde5876e	-0.11207472
52	0xbdfa7b30	-0.122305274
53	0xbe3efdf7	-0.18651567
54	0xbe4564d0	-0.19276738
55	0x3d0c8bb5	0.034312923
56	0x3be05ad2	0.006846764
57	0xbe33f965	-0.17575605
58	0xbdea939f	-0.11453938
59	0x3cb5a9fa	0.022175778
60	0xbdebed4e	-0.11519872
61	0xbe18a113	-0.14905195
62	0x3dea3d6d	0.11437497
63	0xbbded22b	-0.0067999563
64	0xbdc93e04	-0.09826282
65	0xbc8090e2	-0.015694086
66	0x3ccc7fd9	0.024963306
67	0xbde6a462	-0.11261822
68	0xbe54f0d9	-0.20795001
69	0xbdd1f7cb	-0.10252341
70	0xbdc7b169	-0.09750635
71	0x3e14887e	0.14505193
72	0x3d901ca7	0.07036715
73	0x3b214e2a	0.002461324
74	0xbe4da894	-0.20083839
75	0x3d48b43c	0.04900001
76	0xbd372267	-0.044710543
77	0xbe29981f	-0.16561936
78	0x3de55bd1	0.11199153
79	0x3b8aae57	0.0042322087
80	0xbdabac68	-0.08382493
81	0x3d251e20	0.040311933
82	0x3d76a4c3	0.060215723
83	0x3da5414e	0.080690965
84	0x3dd1bd63	0.10241201
85	0xbdb88fa0	-0.09011769
86	0xbc83f64e	-0.016108658
87	0x3d3fc40a	0.046817817
88	0x3d198af0	0.037486017
89	0xbc638eed	-0.013889057
90	0x3e54d4f3	0.20784359
91	0x3d8a2ebd	0.06747196
92	0x3ddab5cd	0.10679207
93	0xbdcc52f3	-0.09976759
94	0xbdb661a6	-0.08905344
95	0x3d74b40b	0.059742015
96	0xbe4eb6a4	-0.2018686
97	0xbd76f043	-0.060287725
98	0xbbecc3c7	-0.007225487
99	0xbe4b721d	-0.1986775
100	0xbd3cfa5f	-0.04613721
101	0xbd129ee3	-0.035796057
102	0xbe6bced9	-0.23028125
103	0xbc358579	-0.011079186
104	0xbe2e3617	-0.17012821
105	0xbde5fb06	-0.112295195
106	0xbdd65c97	-0.10466879
107	0x3c5512ea	0.013004998
108	0xbdb7e4df	-0.089792006
109	0xbd475676	-0.04866644
110	0xbe39bd0c	-0.18138522
111	0xbe2893f1	-0.16462685
112	0xbe35a5e7	-0.17739068
113	0x3d90dc1d	0.07073233
114	0xb995b8da	-0.0002855722
115	0x3c878f54	0.016547836
116	0xbe2c7b27	-0.16843854
117	0xbe261dda	-0.16222325
118	0xbdc3842f	-0.095466964
119	0xbdb39743	-0.08769085
120	0x3e025cb7	0.1273068
121	0x3ddf9e85	0.10918907
122	0xbd092ab8	-0.033488005
123	0x3d832564	0.06403616
124	0xbab11ee2	-0.0013513232
125	0xbeab9aae	-0.3351645
126	0xbdad4d6b	-0.08462032
127	0x3df1e3b4	0.11811009
128	0x3c3b28e0	0.01142332
129	0xbdc9a6cd	-0.09846268
130	0x3dc5632c	0.09638056
131	0x3ddee9a4	0.10884407
132	0xbed65749	-0.41863468
133	0x3ce99690	0.028514177
134	0xbcb67d5a	-0.02227657
135	0xbe787a03	-0.24265294
136	0x3b9dc8f2	0.0048152143
137	0x3d5554f3	0.052082967
138	0xbc92b32c	-0.017907701
139	0xbd25a7f1	-0.040443365
140	0x3d8422e9	0.06451971
141	0xbdc0ab4f	-0.094076745
142	0xbedb4486	-0.42825717
143	0xbedd0d97	-0.4317443
144	0xbee37814	-0.4442755
145	0xbe924c11	-0.2857366
146	0xbc89fc67	-0.016843988
147	0x3d2fc950	0.042916596
148	0x3d5924b3	0.053013515
149	0x3df5742a	0.11985047
150	0x3ddb9444	0.10721639
151	0x3dfbc3dc	0.122932166
152	0xbabb6277	-0.0014296313
153	0x3d5ff38a	0.054675616
154	0x3dda046b	0.10645374
155	0xbe89eca9	-0.2693837
156	0xbe87b73b	-0.2650698
157	0x3b0b949b	0.0021298293
158	0xbdce59b9	-0.10075707
159	0xbdaaaa2b	-0.08333238
160	0xbc7f6a66	-0.015589332
161	0xbc6bef10	-0.014400259
162	0x3e1965ac	0.14980191
163	0xbc64f89a	-0.013975287
164	0x3c300031	0.010742233
165	0xbdd95f80	-0.10613918
166	0xbe8b38f2	-0.27191883
167	0xbcaafb23	-0.020871704
168	0xbdca9fe2	-0.098937765
169	0xbe8197bc	-0.25311077
170	0xbe1f59a5	-0.1556154
171	0xbdc16cb3	-0.09444561
172	0xbe84709b	-0.2586716
173	0x3d7002ac	0.058596298
174	0xbc952488	-0.018205896
175	0x3c596695	0.013269086
176	0xbdf01b72	-0.11723985
177	0xbd40530c	-0.0469542
178	0xbcc7b7c0	-0.024379611
179	0x3d853bff	0.06505584
180	0x3e617250	0.22016263
181	0x3dfcf8c1	0.123521335
182	0xbd904936	-0.07045214
183	0xbba93656	-0.005163948
184	0x3dba68d5	0.091020264
185	0x3df7f4fa	0.121072724
186	0x3da8e867	0.08247452
187	0xbc3a7874	-0.011381257
188	0xbde987d4	-0.1140286
189	0x3d5d006b	0.053955477
190	0xbb9e7136	-0.004835273
191	0x3d88cc9a	0.0667965
192	0x3da0d37b	0.07852837
193	0x3de10fd9	0.10989351
194	0xbdac8296	-0.08423345
195	0xbe254135	-0.16138156
196	0xbd0b95cc	-0.034078404
197	0xbceb3ca9	-0.028715448
198	0xbce0d541	-0.027445437
199	0xbda635a6	-0.081157014
200	0xbc8ec604	-0.017428406
201	0xbc0344b7	-0.008011988
202	0xbdb37009	-0.087616034
203	0xbc2ff8d3	-0.010740477
204	0xbca0bfb0	-0.019622654
205	0x3e09de87	0.13463794
206	0x3da6cea7	0.081448846
207	0x3ca86872	0.020557616
208	0x3e999805	0.29998794
209	0x3da4b8d5	0.080430664
210	0xbd5ad71f	-0.05342781
211	0x3d0f1fa5	0.034942288
212	0xbd51c7f5	-0.051216085
213	0xbdddf698	-0.1083805
214	0xbd711f0f	-0.05886751
215	0x3d5a7706	0.053336166
216	0xbcc839e3	-0.024441665
217	0x3c8ccd05	0.017187605
218	0x3ddb8b46	0.10719924
219	0xbadd0723	-0.0016863089
220	0xbc921caf	-0.017835943
221	0xbcd81483	-0.026376968
222	0xbd433aa6	-0.047663353
223	0x3e06a331	0.1314819
224	0x3b614bec	0.0034377528
225	0x3d8ea954	0.069658905
226	0xbd27eb5d	-0.040995944
227	0x3d5fd48e	0.054646067
228	0xbdcdb136	-0.10043566
229	0xbce96dba	-0.028494705
230	0xbd0ae496	-0.033909403
231	0x3caf60d1	0.02140847
232	0x3e0e22f8	0.13880527
233	0x3cb39b92	0.021924768
234	0x3ca90ad2	0.020635042
235	0xbcc81947	-0.024426116
236	0xbdecdf0d	-0.11565981
237	0x3a528ace	0.0008031548
238	0xbd44f375	-0.04808374
239	0x3d57214f	0.052522
240	0x3d09b602	0.03362084
241	0x3e039314	0.12849075
242	0xbe025aa9	-0.12729897
243	0x3c7148e7	0.014726854
244	0x3d5ccfd3	0.053909134
245	0xb9f5a11a	-0.00046850072
246	0xbd57286c	-0.052528784
247	0xbcdf5101	-0.027260305
248	0x3ad1cd07	0.0016006537
249	0xbe2d286a	-0.16909948
250	0xbd22a9a3	-0.03971256
251	0x3c0b6b55	0.008509477
252	0xbcec0b1b	-0.02881389
253	0x3c8c8d4a	0.017157216
254	0x3d63b064	0.05558814
255	0x3cd696f2	0.026195023

bias f4 [10]
0	0x3db6ca39	0.0892529
1	0x3db50d99	0.08840484
2	0x3d017097	0.031601515
3	0xbde3de47	-0.111263804
4	0xbd41ea9e	-0.04734289
5	0xbc8ff0a5	-0.017570803
6	0x3c022d45	0.007945363
7	0xbd833167	-0.06405907
8	0x3d25cf78	0.04048106
9	0xbd0e240b	-0.034702342
